…
A brief steps for using this code is:
1. upzipped
2. run imageAugmententation.py
3. run runEngine.py (There are two line for commenting out or uncomment to switch to either U net or Seg net model)
4. run results.py (There are two line for commenting out or uncomment to switch to either U net or Seg net model)


Some important data

Here we have for segnet:
The architecture is:
_________________________________________________________________
Layer (type)                 Output Shape              Param #   
=================================================================
conv2d_110 (Conv2D)          (None, 128, 128, 64)      1792      
_________________________________________________________________
batch_normalization_91 (Batc (None, 128, 128, 64)      256       
_________________________________________________________________
activation_90 (Activation)   (None, 128, 128, 64)      0         
_________________________________________________________________
conv2d_111 (Conv2D)          (None, 128, 128, 64)      36928     
_________________________________________________________________
batch_normalization_92 (Batc (None, 128, 128, 64)      256       
_________________________________________________________________
activation_91 (Activation)   (None, 128, 128, 64)      0         
_________________________________________________________________
max_pooling2d_24 (MaxPooling (None, 64, 64, 64)        0         
_________________________________________________________________
conv2d_112 (Conv2D)          (None, 64, 64, 128)       73856     
_________________________________________________________________
batch_normalization_93 (Batc (None, 64, 64, 128)       512       
_________________________________________________________________
activation_92 (Activation)   (None, 64, 64, 128)       0         
_________________________________________________________________
conv2d_113 (Conv2D)          (None, 64, 64, 128)       147584    
_________________________________________________________________
batch_normalization_94 (Batc (None, 64, 64, 128)       512       
_________________________________________________________________
activation_93 (Activation)   (None, 64, 64, 128)       0         
_________________________________________________________________
max_pooling2d_25 (MaxPooling (None, 32, 32, 128)       0         
_________________________________________________________________
conv2d_114 (Conv2D)          (None, 32, 32, 256)       295168    
_________________________________________________________________
batch_normalization_95 (Batc (None, 32, 32, 256)       1024      
_________________________________________________________________
activation_94 (Activation)   (None, 32, 32, 256)       0         
_________________________________________________________________
conv2d_115 (Conv2D)          (None, 32, 32, 256)       590080    
_________________________________________________________________
batch_normalization_96 (Batc (None, 32, 32, 256)       1024      
_________________________________________________________________
activation_95 (Activation)   (None, 32, 32, 256)       0         
_________________________________________________________________
conv2d_116 (Conv2D)          (None, 32, 32, 256)       590080    
_________________________________________________________________
batch_normalization_97 (Batc (None, 32, 32, 256)       1024      
_________________________________________________________________
activation_96 (Activation)   (None, 32, 32, 256)       0         
_________________________________________________________________
max_pooling2d_26 (MaxPooling (None, 16, 16, 256)       0         
_________________________________________________________________
conv2d_117 (Conv2D)          (None, 16, 16, 512)       1180160   
_________________________________________________________________
batch_normalization_98 (Batc (None, 16, 16, 512)       2048      
_________________________________________________________________
activation_97 (Activation)   (None, 16, 16, 512)       0         
_________________________________________________________________
conv2d_118 (Conv2D)          (None, 16, 16, 512)       2359808   
_________________________________________________________________
batch_normalization_99 (Batc (None, 16, 16, 512)       2048      
_________________________________________________________________
activation_98 (Activation)   (None, 16, 16, 512)       0         
_________________________________________________________________
conv2d_119 (Conv2D)          (None, 16, 16, 512)       2359808   
_________________________________________________________________
batch_normalization_100 (Bat (None, 16, 16, 512)       2048      
_________________________________________________________________
activation_99 (Activation)   (None, 16, 16, 512)       0         
_________________________________________________________________
max_pooling2d_27 (MaxPooling (None, 8, 8, 512)         0         
_________________________________________________________________
conv2d_120 (Conv2D)          (None, 8, 8, 512)         2359808   
_________________________________________________________________
batch_normalization_101 (Bat (None, 8, 8, 512)         2048      
_________________________________________________________________
activation_100 (Activation)  (None, 8, 8, 512)         0         
_________________________________________________________________
conv2d_121 (Conv2D)          (None, 8, 8, 512)         2359808   
_________________________________________________________________
batch_normalization_102 (Bat (None, 8, 8, 512)         2048      
_________________________________________________________________
activation_101 (Activation)  (None, 8, 8, 512)         0         
_________________________________________________________________
conv2d_122 (Conv2D)          (None, 8, 8, 512)         2359808   
_________________________________________________________________
batch_normalization_103 (Bat (None, 8, 8, 512)         2048      
_________________________________________________________________
activation_102 (Activation)  (None, 8, 8, 512)         0         
_________________________________________________________________
max_pooling2d_28 (MaxPooling (None, 4, 4, 512)         0         
_________________________________________________________________
up_sampling2d_15 (UpSampling (None, 8, 8, 512)         0         
_________________________________________________________________
conv2d_123 (Conv2D)          (None, 8, 8, 512)         2359808   
_________________________________________________________________
batch_normalization_104 (Bat (None, 8, 8, 512)         2048      
_________________________________________________________________
activation_103 (Activation)  (None, 8, 8, 512)         0         
_________________________________________________________________
conv2d_124 (Conv2D)          (None, 8, 8, 512)         2359808   
_________________________________________________________________
batch_normalization_105 (Bat (None, 8, 8, 512)         2048      
_________________________________________________________________
activation_104 (Activation)  (None, 8, 8, 512)         0         
_________________________________________________________________
conv2d_125 (Conv2D)          (None, 8, 8, 512)         2359808   
_________________________________________________________________
batch_normalization_106 (Bat (None, 8, 8, 512)         2048      
_________________________________________________________________
activation_105 (Activation)  (None, 8, 8, 512)         0         
_________________________________________________________________
up_sampling2d_16 (UpSampling (None, 16, 16, 512)       0         
_________________________________________________________________
conv2d_126 (Conv2D)          (None, 16, 16, 512)       2359808   
_________________________________________________________________
batch_normalization_107 (Bat (None, 16, 16, 512)       2048      
_________________________________________________________________
activation_106 (Activation)  (None, 16, 16, 512)       0         
_________________________________________________________________
conv2d_127 (Conv2D)          (None, 16, 16, 512)       2359808   
_________________________________________________________________
batch_normalization_108 (Bat (None, 16, 16, 512)       2048      
_________________________________________________________________
activation_107 (Activation)  (None, 16, 16, 512)       0         
_________________________________________________________________
conv2d_128 (Conv2D)          (None, 16, 16, 256)       1179904   
_________________________________________________________________
batch_normalization_109 (Bat (None, 16, 16, 256)       1024      
_________________________________________________________________
activation_108 (Activation)  (None, 16, 16, 256)       0         
_________________________________________________________________
up_sampling2d_17 (UpSampling (None, 32, 32, 256)       0         
_________________________________________________________________
conv2d_129 (Conv2D)          (None, 32, 32, 256)       590080    
_________________________________________________________________
batch_normalization_110 (Bat (None, 32, 32, 256)       1024      
_________________________________________________________________
activation_109 (Activation)  (None, 32, 32, 256)       0         
_________________________________________________________________
conv2d_130 (Conv2D)          (None, 32, 32, 256)       590080    
_________________________________________________________________
batch_normalization_111 (Bat (None, 32, 32, 256)       1024      
_________________________________________________________________
activation_110 (Activation)  (None, 32, 32, 256)       0         
_________________________________________________________________
conv2d_131 (Conv2D)          (None, 32, 32, 128)       295040    
_________________________________________________________________
batch_normalization_112 (Bat (None, 32, 32, 128)       512       
_________________________________________________________________
activation_111 (Activation)  (None, 32, 32, 128)       0         
_________________________________________________________________
up_sampling2d_18 (UpSampling (None, 64, 64, 128)       0         
_________________________________________________________________
conv2d_132 (Conv2D)          (None, 64, 64, 128)       147584    
_________________________________________________________________
batch_normalization_113 (Bat (None, 64, 64, 128)       512       
_________________________________________________________________
activation_112 (Activation)  (None, 64, 64, 128)       0         
_________________________________________________________________
conv2d_133 (Conv2D)          (None, 64, 64, 64)        73792     
_________________________________________________________________
batch_normalization_114 (Bat (None, 64, 64, 64)        256       
_________________________________________________________________
activation_113 (Activation)  (None, 64, 64, 64)        0         
_________________________________________________________________
up_sampling2d_19 (UpSampling (None, 128, 128, 64)      0         
_________________________________________________________________
conv2d_134 (Conv2D)          (None, 128, 128, 64)      36928     
_________________________________________________________________
batch_normalization_115 (Bat (None, 128, 128, 64)      256       
_________________________________________________________________
activation_114 (Activation)  (None, 128, 128, 64)      0         
_________________________________________________________________
conv2d_135 (Conv2D)          (None, 128, 128, 1)       65        
_________________________________________________________________
batch_normalization_116 (Bat (None, 128, 128, 1)       4         
_________________________________________________________________
conv2d_136 (Conv2D)          (None, 128, 128, 1)       2         
=================================================================
Total params: 29,458,951
Trainable params: 29,443,077
Non-trainable params: 15,874

Entire parameter updating process:
896/900 [============================>.] - ETA: 0s - loss: 0.6837 - accuracy: 0.6806  
Epoch 00001: val_loss improved from inf to 1.10100, saving model to Segbestmodel.h5
900/900 [==============================] - 24s 27ms/sample - loss: 0.6836 - accuracy: 0.6809 - val_loss: 1.1010 - val_accuracy: 0.6994
…
Image:  1
Pixel accuracy: 0.727
Mean accuracy: 0.726
Mean IOU: 0.566
Frequency Weighted IOU: 0.574
Image:  2
Pixel accuracy: 0.680
Mean accuracy: 0.662
Mean IOU: 0.497
Frequency Weighted IOU: 0.525
Image:  3
Pixel accuracy: 0.794
Mean accuracy: 0.784
Mean IOU: 0.651
Frequency Weighted IOU: 0.657

Test loss: 0.439
Test accuracy: 0.787





Final U-net Results:

Model details:
Layer (type)                    Output Shape         Param #     Connected to                     
==================================================================================================
input_2 (InputLayer)            [(None, 128, 128, 3) 0                                            
__________________________________________________________________________________________________
lambda_1 (Lambda)               (None, 128, 128, 3)  0           input_2[0][0]                    
__________________________________________________________________________________________________
conv2d_164 (Conv2D)             (None, 128, 128, 64) 1792        lambda_1[0][0]                   
__________________________________________________________________________________________________
dropout_9 (Dropout)             (None, 128, 128, 64) 0           conv2d_164[0][0]                 
__________________________________________________________________________________________________
conv2d_165 (Conv2D)             (None, 128, 128, 64) 36928       dropout_9[0][0]                  
__________________________________________________________________________________________________
max_pooling2d_34 (MaxPooling2D) (None, 64, 64, 64)   0           conv2d_165[0][0]                 
__________________________________________________________________________________________________
conv2d_166 (Conv2D)             (None, 64, 64, 128)  73856       max_pooling2d_34[0][0]           
__________________________________________________________________________________________________
dropout_10 (Dropout)            (None, 64, 64, 128)  0           conv2d_166[0][0]                 
__________________________________________________________________________________________________
conv2d_167 (Conv2D)             (None, 64, 64, 128)  147584      dropout_10[0][0]                 
__________________________________________________________________________________________________
max_pooling2d_35 (MaxPooling2D) (None, 32, 32, 128)  0           conv2d_167[0][0]                 
__________________________________________________________________________________________________
conv2d_168 (Conv2D)             (None, 32, 32, 256)  295168      max_pooling2d_35[0][0]           
__________________________________________________________________________________________________
dropout_11 (Dropout)            (None, 32, 32, 256)  0           conv2d_168[0][0]                 
__________________________________________________________________________________________________
conv2d_169 (Conv2D)             (None, 32, 32, 256)  590080      dropout_11[0][0]                 
__________________________________________________________________________________________________
max_pooling2d_36 (MaxPooling2D) (None, 16, 16, 256)  0           conv2d_169[0][0]                 
__________________________________________________________________________________________________
conv2d_170 (Conv2D)             (None, 16, 16, 512)  1180160     max_pooling2d_36[0][0]           
__________________________________________________________________________________________________
dropout_12 (Dropout)            (None, 16, 16, 512)  0           conv2d_170[0][0]                 
__________________________________________________________________________________________________
conv2d_171 (Conv2D)             (None, 16, 16, 512)  2359808     dropout_12[0][0]                 
__________________________________________________________________________________________________
max_pooling2d_37 (MaxPooling2D) (None, 8, 8, 512)    0           conv2d_171[0][0]                 
__________________________________________________________________________________________________
conv2d_172 (Conv2D)             (None, 8, 8, 1024)   4719616     max_pooling2d_37[0][0]           
__________________________________________________________________________________________________
dropout_13 (Dropout)            (None, 8, 8, 1024)   0           conv2d_172[0][0]                 
__________________________________________________________________________________________________
conv2d_173 (Conv2D)             (None, 8, 8, 1024)   9438208     dropout_13[0][0]                 
__________________________________________________________________________________________________
conv2d_transpose_4 (Conv2DTrans (None, 16, 16, 512)  2097664     conv2d_173[0][0]                 
__________________________________________________________________________________________________
concatenate_4 (Concatenate)     (None, 16, 16, 1024) 0           conv2d_transpose_4[0][0]         
                                                                 conv2d_171[0][0]                 
__________________________________________________________________________________________________
conv2d_174 (Conv2D)             (None, 16, 16, 512)  4719104     concatenate_4[0][0]              
__________________________________________________________________________________________________
dropout_14 (Dropout)            (None, 16, 16, 512)  0           conv2d_174[0][0]                 
__________________________________________________________________________________________________
conv2d_175 (Conv2D)             (None, 16, 16, 512)  2359808     dropout_14[0][0]                 
__________________________________________________________________________________________________
conv2d_transpose_5 (Conv2DTrans (None, 32, 32, 256)  524544      conv2d_175[0][0]                 
__________________________________________________________________________________________________
concatenate_5 (Concatenate)     (None, 32, 32, 512)  0           conv2d_transpose_5[0][0]         
                                                                 conv2d_169[0][0]                 
__________________________________________________________________________________________________
conv2d_176 (Conv2D)             (None, 32, 32, 256)  1179904     concatenate_5[0][0]              
__________________________________________________________________________________________________
dropout_15 (Dropout)            (None, 32, 32, 256)  0           conv2d_176[0][0]                 
__________________________________________________________________________________________________
conv2d_177 (Conv2D)             (None, 32, 32, 256)  590080      dropout_15[0][0]                 
__________________________________________________________________________________________________
conv2d_transpose_6 (Conv2DTrans (None, 64, 64, 128)  131200      conv2d_177[0][0]                 
__________________________________________________________________________________________________
concatenate_6 (Concatenate)     (None, 64, 64, 256)  0           conv2d_transpose_6[0][0]         
                                                                 conv2d_167[0][0]                 
__________________________________________________________________________________________________
conv2d_178 (Conv2D)             (None, 64, 64, 128)  295040      concatenate_6[0][0]              
__________________________________________________________________________________________________
dropout_16 (Dropout)            (None, 64, 64, 128)  0           conv2d_178[0][0]                 
__________________________________________________________________________________________________
conv2d_179 (Conv2D)             (None, 64, 64, 128)  147584      dropout_16[0][0]                 
__________________________________________________________________________________________________
conv2d_transpose_7 (Conv2DTrans (None, 128, 128, 64) 32832       conv2d_179[0][0]                 
__________________________________________________________________________________________________
concatenate_7 (Concatenate)     (None, 128, 128, 128 0           conv2d_transpose_7[0][0]         
                                                                 conv2d_165[0][0]                 
__________________________________________________________________________________________________
conv2d_180 (Conv2D)             (None, 128, 128, 64) 73792       concatenate_7[0][0]              
__________________________________________________________________________________________________
dropout_17 (Dropout)            (None, 128, 128, 64) 0           conv2d_180[0][0]                 
__________________________________________________________________________________________________
conv2d_181 (Conv2D)             (None, 128, 128, 64) 36928       dropout_17[0][0]                 
__________________________________________________________________________________________________
conv2d_182 (Conv2D)             (None, 128, 128, 1)  65          conv2d_181[0][0]                 
==================================================================================================
Total params: 31,031,745
Trainable params: 31,031,745
Non-trainable params: 0

Data Updating Process
896/900 [============================>.] - ETA: 0s - loss: 0.5655 - accuracy: 0.7502  
Epoch 00001: val_loss improved from inf to 0.26054, saving model to Ubestmodel.h5
…
